model/keypoint_classifier/keypoint_classifier.tflite (tflite, 7456 bytes, 6 tensors)

sequential/dense/BiasAdd/ReadVariableOp f4 [20]
000000 cf e2 ba bf ef 9a 23 bf 30 2a 37 3f 71 1e ed bf
       -1.4600466 -0.63908285 0.7154875 -1.8524915
000010 a9 c4 1a c0 4d 3c 47 bd f5 c6 ac bf 88 2d 14 bf
       -2.4182532 -0.04864149 -1.3498217 -0.57881975
000020 3f 29 84 3f d4 32 a4 bf 08 16 91 3f f4 76 d9 bf
       1.0325087 -1.2828012 1.1334848 -1.6989427
000030 bf e8 51 be 64 cc af bf e5 30 b7 bf e0 1b b5 be
       -0.20498942 -1.373425 -1.4311796 -0.3537283
000040 95 87 cc bf 85 52 24 3f 2e e4 a3 bf 60 7b 5f be
       -1.5978876 0.64188415 -1.280401 -0.21824408

sequential/dense_2/BiasAdd/ReadVariableOp f4 [26]
000000 bf e6 3c 3f a9 ca cd be 93 a9 0a c0 5c 3b 11 3f
       0.7378959 -0.4019368 -2.1666 0.567312
000010 8c db 9c bf 23 a6 76 3f 91 01 bf 3e 61 23 9f 3f
       -1.22545 0.96347255 0.37305883 1.2432672
000020 37 2b 98 3f 0f 51 59 3e df 4e 82 3e 6b b1 2c 3f
       1.1888188 0.21222328 0.254508 0.6745822
000030 a3 a7 fd bf 3d 18 d8 3f 5d 16 4c c0 0e 74 04 be
       -1.9816784 1.6882397 -3.188865 -0.12934896
000040 27 d3 4e 3f f2 76 5b 3c 7d fe 90 be b2 42 a4 3f
       0.8079094 0.013395058 -0.2831916 1.2832854
000050 47 1b 7d be f4 1f b2 3d b3 e4 43 be 44 d1 09 3d
       -0.24717437 0.08697501 -0.1913021 0.033646837
000060 3e 7f c7 be 58 89 4a bf
       -0.38964266 -0.7911582

sequential/dense_1/BiasAdd/ReadVariableOp f4 [10]
000000 c6 66 14 bf 6e 62 34 3e 4c d5 87 be fd 7c 4e bf
       -0.5796932 0.17615673 -0.2652992 -0.80659467
000010 e7 2a b4 3f 67 80 ee 3f 36 4c b4 3e 7c 4a 17 3f
       1.4075593 1.8632935 0.35214394 0.5909803
000020 b0 df 04 3f ee 7c 11 3f
       0.5190382 0.5683125

sequential/dense/MatMul f4 [20, 42]
000000 06 49 2c be ac 7b 67 3e 3a 1f 11 3f 83 56 56 3d
       -0.16824731 0.22605771 0.5668827 0.052328598
000010 71 ab 83 3e 35 d9 a1 3c 4f d7 42 3e 71 e9 e3 3d
       0.25716737 0.019756893 0.19027446 0.1112851
000020 bb ff 05 3f 22 28 a0 3d 8f 4f 27 be d5 7a df bd
       0.5234334 0.07820155 -0.16338943 -0.109121
000030 e4 fe a4 3d 89 09 1d bd e8 5c 76 3e e0 62 6c 3d
       0.08056429 -0.03833917 0.24058878 0.057711482
000040 66 fe ae 3e 04 39 bd 3d b0 c7 57 be da da da bd
       0.34178466 0.092393905 -0.21072268 -0.10686274
000050 6c 54 10 3f 8e 82 9c bc 96 7f 4d 3f bd c2 52 bd
       0.5637882 -0.019105222 0.80272806 -0.05145525
000060 75 eb 6f 3f f3 66 1d bd 7b de 99 bd 77 24 41 bd
       0.93718654 -0.03842826 -0.07513138 -0.047153916
000070 a6 80 9e 3f f0 5b 12 3c 7a b3 90 3f f7 83 10 bb
       1.238301 0.008933052 1.1304772 -0.0022051313
000080 da ab 8f 3f 57 23 42 bd 73 35 34 3f c5 d7 2f bd
       1.122432 -0.047396984 0.7039406 -0.042930383
000090 1d 96 ac 3f 41 6a 6f 3d 02 6b 65 3f 0a ec b4 3d
       1.3483311 0.05845094 0.89616406 0.088340834
0000a0 78 dd be 3e 70 83 b0 3d 48 29 23 3e 90 b5 1b 3e
       0.37278342 0.0861882 0.15933716 0.1520598
0000b0 85 00 ae 3d 78 2b e2 3e 0a ed 09 3e da cd 50 3e
       0.08496193 0.4417379 0.1346933 0.20391026
0000c0 3b 77 a3 3e 0f 6f 1e 3e 81 42 33 3f 99 b0 22 3e
       0.31926903 0.15472053 0.7002335 0.15887679
0000d0 ba 99 c6 3e ae 1b 61 3d 44 96 31 3e 0b 94 be 3d
       0.3878916 0.054958038 0.17342478 0.09305581
0000e0 f5 2d 6c bc 8c 81 6c 3e 70 f6 f0 bd 31 ca 8d 3e
       -0.014415254 0.23096293 -0.11765754 0.27693322
0000f0 45 17 5f 3f 57 be 04 3d 88 08 bd 3d 37 bd b5 3d
       0.8714488 0.032408085 0.09230143 0.088739805
000100 62 1f 5a bd a6 20 1f 3e ee 88 dd bc 1b 57 69 3e
       -0.053252585 0.15539798 -0.027042832 0.22787134
000110 81 ad 3a 3f 52 55 a1 b9 e5 f0 aa 3d 9e db ae 3b
       0.72920996 -0.00030771882 0.08346728 0.005336239
000120 be dc 13 be 14 e8 15 3e d2 77 df bd 40 17 a6 3e
       -0.14439675 0.14639312 -0.10911526 0.32439613
000130 3b ff 1b 3e c0 d8 a4 bd dc f6 6e be e4 6f 13 be
       0.15234081 -0.08049154 -0.23336357 -0.14398152
000140 76 51 c1 be 3d d0 b8 bf f5 15 c5 be ea 94 ab bf
       -0.37757462 -1.4438549 -0.38493314 -1.340482
000150 e6 53 0b be a2 9e 54 be 79 a3 57 bf 4f f6 85 3f
       -0.13606223 -0.20763639 -0.84233814 1.0465792
000160 f9 d1 4d be 60 aa 87 3f 76 60 79 bd a5 d1 9c 3f
       -0.2009963 1.0598869 -0.060883008 1.2251478
000170 ca 72 27 bd 81 ce 8c 3f 1f 38 19 3e 30 e8 47 3f
       -0.040880956 1.100052 0.14962815 0.78088665
000180 95 a4 65 bd bb a9 d2 3e f4 f1 83 be af 99 f0 3e
       -0.05606516 0.4114512 -0.25770533 0.4699225
000190 1b 07 9c be 5d 92 8e 3f c4 12 60 3e 4b 17 26 3f
       -0.3047417 1.1138417 0.21882159 0.6487929
0001a0 11 90 50 3d 96 d3 1b 3f 01 10 48 be fc c1 cd 3f
       0.050918642 0.6086973 -0.19537355 1.6074824
0001b0 38 69 89 be e7 9a 09 40 15 db 4d 3e c9 5a af 3e
       -0.26838088 2.1500795 0.20103104 0.3424895
0001c0 7a df 1d 3d 9c c5 44 3e 5a e7 25 be 51 8b 7f 3f
       0.038543202 0.19216007 -0.16201535 0.99821955
0001d0 c5 cd 63 be eb 08 eb 3f 15 1b d0 3e 19 5b 8a 3d
       -0.22246464 1.8362097 0.40645662 0.06755657
0001e0 94 6b 0f 3c 16 d7 1d bd dd 1a 58 be 88 f2 05 3e
       0.008753676 -0.0385352 -0.21103998 0.130808
0001f0 d8 2c 9e be 4a d9 98 3f 40 b1 71 3e 20 fd b0 3c
       -0.30893588 1.1941311 0.23602772 0.021605074
000200 df df f4 bd 6e 24 ab 3e 67 40 02 be 87 b4 bb 3d
       -0.119567625 0.3342623 -0.1271988 0.09165292
000210 a2 36 0e be 75 93 87 3d 4e 62 1f be 8b db 3e 3d
       -0.13888028 0.06619922 -0.15564844 0.04659609
000220 df c9 09 bd 5d f4 0e 3c c9 2a 0a 3e ee a4 a6 bb
       -0.033639785 0.008725253 0.13492884 -0.005085579
000230 5d a8 f3 3d fa 10 aa bc 80 22 52 3d 94 76 79 3c
       0.11897347 -0.020760048 0.051302433 0.015226025
000240 87 8c 9e bc ca 54 d2 bb c4 ca 13 3d 7f f0 4f bc
       -0.019354118 -0.006418799 0.036082044 -0.012691616
000250 b6 41 33 3e 46 5b 38 c0 0a 85 25 3e 3a 17 a1 3c
       0.17505535 -2.880571 0.16164032 0.019664396
000260 06 1e 0b 3b 8e 44 9d 3c b1 00 cf 3b 69 15 de bb
       0.0021227612 0.019197728 0.006317221 -0.0067774546
000270 74 9c a4 3d 8a 54 da bc 05 1e c4 3b 37 58 45 be
       0.080376536 -0.02665164 0.005985024 -0.19271933
000280 d2 1e cc bb f2 9b 13 3d 6e cf f7 bd a9 8a 30 3d
       -0.00622926 0.036037393 -0.12100111 0.043100987
000290 04 86 2e be bf 51 ae 3d e1 bd 48 be 1a cf 95 3d
       -0.1704331 0.085116856 -0.19603683 0.07314892
0002a0 3a f0 25 be 3c 35 99 3e bf 17 b3 bd cf 1b 05 3f
       -0.1620492 0.29923427 -0.087447636 0.5199556
0002b0 92 a7 47 3c f2 a0 e2 bd 43 e9 02 bd 6f cc 10 be
       0.012185948 -0.11065854 -0.031960737 -0.14140485
0002c0 9e fd ed bd 8b 59 f4 bd f7 8e a4 3d e6 b9 09 bd
       -0.11620639 -0.119311415 0.08035081 -0.033624552
0002d0 63 ca fb 3c c5 f0 b4 bc 79 c6 11 bd 32 b4 f8 3c
       0.030736154 -0.022087464 -0.03558967 0.030359361
0002e0 48 61 67 bd 65 a3 3a 3d 7f 37 46 3d de ce 0c bd
       -0.05648926 0.04556598 0.04839277 -0.03437697
0002f0 75 dd 7f 3d 3f c4 b2 bd cb 0e 95 3a ee 04 82 bc
       0.062467057 -0.08728837 0.0011372206 -0.015871491
000300 c3 fe 8a bd ad e6 ea bc 67 2c d9 ba 48 cc 8c bd
       -0.06786873 -0.028674448 -0.0016569019 -0.06874901
000310 b6 df f5 3d 44 d7 24 be b3 0f 59 3d 8c 00 6a bf
       0.1200556 -0.16097742 0.052993488 -0.91407084
000320 62 64 ed bc 0c f0 9d bf 80 34 9f 3c cd 43 0b be
       -0.02897853 -1.2338881 0.019434214 -0.13600083
000330 e2 ce 6c 3d 75 c2 1a be 33 36 1b 3e 7c e9 80 bf
       0.057814486 -0.15113242 0.15157394 -1.0071254
000340 48 98 b0 3d 14 59 1d be 50 0b 71 3e 00 5a 37 3b
       0.08622795 -0.15366012 0.23539472 0.0027977228
000350 0e a5 02 3f 64 97 5b 3e 9b 1f b2 3e 31 a5 9a 3e
       0.51033103 0.2144447 0.34789738 0.30204156
000360 3e 70 b9 3e 2e 75 49 3e 9d 45 99 3e c5 45 4d 3d
       0.36218446 0.19673607 0.29935923 0.050115366
000370 67 0a a1 3d 87 af 2b 3d 4e dd 19 3e ba 04 60 3d
       0.07863312 0.041915443 0.15025827 0.054692008
000380 de 35 63 bd 92 a3 c4 3d 00 6b 8c be e6 b6 2c 3d
       -0.055471294 0.09601511 -0.27425385 0.042166613
000390 7a b6 c9 bd b3 aa 4d 3d d7 43 77 3b db a5 2f 3d
       -0.09849258 0.05021162 0.0037729645 0.04288278
0003a0 45 e9 3c be 54 8a bf 3c 79 de 10 bf ab 9f 7f 3c
       -0.1844836 0.02338139 -0.56589466 0.015602033
0003b0 a7 06 fc be e3 d8 4d 3d 06 ee a5 be 07 97 d0 3c
       -0.49223825 0.050255667 -0.3240816 0.02546264
0003c0 74 d3 dd bd ad 28 8e 3d ac 33 fa be 99 84 af 3c
       -0.10831347 0.06941352 -0.48867548 0.021425532
0003d0 4b ac 8b bf 79 5e bd 3d 9b 88 bd bf 2f a2 64 3d
       -1.0911955 0.09246535 -1.4807314 0.055818733
0003e0 b5 98 e0 bf 77 76 b2 3c 09 6d 14 c0 4a f7 0e 3d
       -1.7546602 0.021785004 -2.319155 0.034903802
0003f0 42 f9 28 3e d0 f2 e1 bd 01 b3 fb bc a1 01 aa be
       0.16501334 -0.11032641 -0.030725004 -0.33204368

sequential/dense_1/MatMul f4 [10, 20]
000000 ed f8 94 3f 32 c2 28 3f af 2f 90 be 4e ab eb 3d
       1.1638466 0.6592132 -0.2816138 0.11507283
000010 b5 cf bd 3e 37 5b 78 3e bd e2 89 3f 70 06 22 3c
       0.3707253 0.24253546 1.077232 0.00988923
000020 c2 a7 8d bd 58 36 86 3e b2 04 92 bd 7a cb bf ba
       -0.06916763 0.26213336 -0.07129802 -0.0014632784
000030 7c 1a ce bb 5a 83 12 3f 7b 4c a8 3e 90 04 c6 be
       -0.0062897783 0.57231677 0.3287085 -0.38675356
000040 95 9a 6a 3d 1a 14 86 be ec 01 51 3f df 78 6b 3e
       0.057276327 -0.2618721 0.8164356 0.22995327
000050 d2 e7 8b 3f 42 9d 13 3e 32 25 28 3f 8c 6b b8 bd
       1.0930121 0.14415458 0.65681756 -0.09004888
000060 37 a1 bf 3e 89 1c 49 3f 31 bb 82 3f 1f 85 fd 3d
       0.37427685 0.78559166 1.0213376 0.123789065
000070 43 88 49 3f 83 e2 b9 3f 65 77 2c 3f c0 f6 e4 3f
       0.78723544 1.4522251 0.6736968 1.7887802
000080 e4 a2 96 3e 79 d7 c8 b9 24 03 03 3f ec 97 d4 3f
       0.2942115 -0.00038307512 0.5117667 1.6608863
000090 ab 4d 99 bd 98 17 20 3f 2d 6f dd 3f c0 01 45 3f
       -0.07485517 0.62536 1.7299553 0.76955795
0000a0 71 a4 d7 3e 62 e2 9b be e3 91 93 bf f7 d4 80 3f
       0.42117646 -0.30446154 -1.1528896 1.0064992
0000b0 48 a5 1a 3f 35 df 4b 3f 8f 2e eb 3e 75 6a 19 bc
       0.6040845 0.7963746 0.4593396 -0.00936376
0000c0 0b 25 f9 3e df 6d 39 3e ff a9 f0 3e a8 58 fd 3d
       0.48661074 0.18108319 0.47004697 0.123704255
0000d0 de fe c0 3f 9e ca b4 bd e1 e2 83 3e 5c 00 50 3e
       1.5077779 -0.08827709 0.25759032 0.20312637
0000e0 80 a6 93 3f 55 57 24 bf c2 f2 85 3e e0 af 35 3f
       1.1535187 -0.6419576 0.26161772 0.7097149
0000f0 5e f1 18 3f 30 53 5a be a9 bd 26 3f 3c 48 50 3d
       0.597433 -0.21320796 0.6513315 0.050850138
000100 ae 86 9d 3d 2a 7e 94 bd a7 b2 0d 3f c4 96 b0 3f
       0.07691704 -0.072506264 0.55350727 1.379601
000110 d2 dc 96 3e 04 88 4d 3f f2 a9 a2 3e ae fe 86 be
       0.29465348 0.8028567 0.31770283 -0.2636618
000120 38 5f 3a 3b 44 9f 06 be 7b 73 e6 bd 5d 0d b1 be
       0.0028438102 -0.13146693 -0.11252495 -0.34580508
000130 f2 c7 a9 3b 26 be 35 3f 14 15 33 3f 90 31 8a bd
       0.005181306 0.7099327 0.6995404 -0.067477345
000140 e7 1d 6f bc 5d 10 15 3f f4 b1 b1 be b9 75 42 3f
       -0.014594532 0.58228093 -0.3470608 0.7596088
000150 76 b8 af 3f eb 3c 9d bf ea fb f9 bc 9f ce 4e 3f
       1.3728168 -1.2284216 -0.03051563 0.8078403
000160 e2 36 e5 bf 20 67 a0 3e c3 8a 06 c0 3c 2b 1a 3f
       -1.7907374 0.31328678 -2.1022193 0.6022222
000170 71 63 d6 3d 48 b2 25 3e 61 33 cc 3f c7 55 ab 3e
       0.10468186 0.1618129 1.595318 0.3346388
000180 65 9a 78 3f 77 df 96 be 8a 07 ee be 99 b3 6c bf
       0.9711059 -0.29467365 -0.46490127 -0.92461544
000190 bc f4 2d 3f c8 21 25 3f cd 2e ac 3b 19 4e 2c bd
       0.6795156 0.6450467 0.0052546025 -0.042066667
0001a0 76 c3 10 be 39 76 6d be 6d 9b 26 3f 35 7f 15 3e
       -0.14137062 -0.2318963 0.6508091 0.14599307
0001b0 fe 48 40 3c e0 07 00 40 a4 c4 9e 3b 6c cf 37 be
       0.011736153 2.0004807 0.0048452187 -0.17950219
0001c0 af 57 b0 3f ea ae 19 3f 25 11 a6 be ce ef 23 bf
       1.3776759 0.6003252 -0.32434955 -0.6403779
0001d0 93 69 d5 bd 24 07 a6 3b b3 c2 93 3f 59 92 6f be
       -0.10420527 0.005066769 1.1543792 -0.23395671
0001e0 80 56 6e 3d 20 03 4f be ca 46 ac be 38 c8 26 3f
       0.05818796 -0.20216036 -0.33647758 0.6514926
0001f0 a8 f6 c6 bd cb ba 90 3f 7a c9 ae 3d b7 17 92 3f
       -0.09715015 1.1307005 0.08534522 1.1413487
000200 01 8f d0 bf d2 ed 04 be f6 ff fa bf d3 a6 49 3e
       -1.6293641 -0.12981346 -1.9609363 0.19692545
000210 e1 c7 a6 3e c2 1b 3a 3f 6b b1 00 be d6 8f 9d 3d
       0.3257437 0.72698605 -0.1256768 0.0769345
000220 d4 d2 5c 3f fd d4 b4 be 50 5c b5 be 3d e1 84 3f
       0.862592 -0.35318747 -0.3542199 1.0381237
000230 52 b6 90 3d 60 e2 1f 3f ef 8b e8 3c c0 af b0 3f
       0.07066025 0.62454796 0.028387038 1.3803635
000240 66 35 12 40 4b 0e ad 3d 6e 94 96 3d d2 c5 a2 be
       2.2845092 0.08449992 0.073525295 -0.3179155
000250 fb 14 50 c0 06 a1 8c 3f a9 7b 37 c0 dc ee 9c bc
       -3.2512805 1.098664 -2.8669226 -0.019156866
000260 99 f7 09 3d 9d d1 a0 3e 75 9d 30 40 18 be 8e bd
       0.033683393 0.31409922 2.7596104 -0.06969851
000270 df 61 b0 3f e0 a1 9e bf f2 03 2f 3f 7b 8c 8a 3d
       1.3779868 -1.239315 0.68365395 0.06765076
000280 06 c2 0d 3f 5f e7 c3 3e 19 04 e5 bf ad 5a f8 3f
       0.5537418 0.3826246 -1.7891876 1.9402672
000290 d9 05 97 3e 78 7d 27 be a1 9d fe 3e 96 98 e5 3f
       0.2949665 -0.16356456 0.49729636 1.793719
0002a0 11 44 3e be 3a 65 40 3c 73 d3 ac be 5b 28 17 3f
       -0.18580653 0.011742884 -0.33755073 0.5904595
0002b0 19 d4 6b 3d 7d 2c 53 3f 58 bf 21 be 97 95 10 3f
       0.05757532 0.8248976 -0.15795648 0.56478256
0002c0 8f d8 dc 3f 05 24 09 c0 0d a5 ab 3e 1a 40 e6 bd
       1.7253588 -2.1428235 0.3352436 -0.11242695
0002d0 d2 4a de 3d c8 e5 0c 40 84 7c 6b 3f f8 30 65 be
       0.108541146 2.2015247 0.9198687 -0.22381961
0002e0 1d e7 b6 3e a5 2a 13 3f 18 24 60 3e 92 b6 31 3d
       0.357232 0.57486945 0.21888769 0.043387003
0002f0 72 34 6a 3f 5e eb 14 bf f2 89 53 3f 4f 12 66 bc
       0.91486275 -0.5817164 0.8263236 -0.014042451
000300 2f 0d 29 be 15 0d 0e 3f 51 0a 11 40 f0 ab 35 3e
       -0.16508935 0.5548871 2.2662547 0.1774137
000310 92 5d 68 be 1f 0a 6b 3f e7 59 7e be 2d 79 08 3f
       -0.22691944 0.9181232 -0.24838983 0.533099

sequential/dense_2/MatMul f4 [26, 10]
000000 25 09 bf bf fe 49 98 3e a3 81 e7 3e 5e 80 2f bf
       -1.4924666 0.29743952 0.45216092 -0.6855525
000010 bc d1 82 bd f9 8a b5 bd c0 69 c9 bf 20 72 d1 3e
       -0.0638766 -0.088643976 -1.5735397 0.40907383
000020 f3 a2 72 bd a8 a7 bd bf de 12 57 bf ba 58 54 bf
       -0.05923743 -1.481679 -0.84013164 -0.82947886
000030 a3 96 f4 be 15 bc 0c bf 09 16 54 3f 8d f8 e5 be
       -0.47771177 -0.5497449 0.8284612 -0.44916192
000040 77 1c 87 3e f7 d7 04 3e 78 e9 8e 3e 69 31 c9 bd
       0.26388904 0.12973009 0.27912498 -0.09823877
000050 cf e3 fc bc 45 89 bf 3d 7e dc 5c 3e 8e 57 1c 3f
       -0.030870346 0.09352354 0.21568486 0.610711
000060 8f b7 a9 be 73 a6 55 bf 0b 1c 78 3e c0 60 d4 3e
       -0.33147857 -0.83457106 0.24229448 0.41480064
000070 e2 57 77 3e 0b 14 21 3d 76 22 e2 be ba 4a 46 bf
       0.24154618 0.039325755 -0.44166917 -0.77457774
000080 c9 8f 23 bf dc 72 04 bd d6 8d 34 3e 03 07 8a 3f
       -0.63891274 -0.0323361 0.17632231 1.078339
000090 3f dc 15 be a0 39 89 bf 59 f6 b1 3e 64 c5 ed be
       -0.14634798 -1.0720711 0.3475826 -0.4643966
0000a0 33 b9 a3 bc 5e c9 c5 bd 11 aa 43 3b b9 a5 ae bf
       -0.01998577 -0.09657548 0.0029856006 -1.3644325
0000b0 9d f6 48 3e 89 1d b0 3c 32 86 30 be 40 77 95 3e
       0.19625326 0.021498458 -0.17238691 0.29192543
0000c0 65 ed a2 3e 56 36 6b be d7 12 9f bf b1 b4 e7 be
       0.31821743 -0.22969946 -1.2427624 -0.45255044
0000d0 e2 2f 05 3d b7 80 05 c0 e6 4d 58 3f 01 c3 94 bf
       0.032516368 -2.0859811 0.84493864 -1.162201
0000e0 ad b0 77 be 0b 56 15 bd b0 9e 8d 3e 8a 84 fe bd
       -0.2418849 -0.03645901 0.2766013 -0.124276236
0000f0 8c 39 73 3e ce dd 15 3e 48 80 f6 be 07 0a 98 be
       0.23752421 0.14635393 -0.48144746 -0.2969515
000100 cb ac 14 bf 3f e4 e1 bd f9 e7 eb 3e 14 1d a4 bf
       -0.5807616 -0.110298626 0.4607542 -1.2821374
000110 0b 1d c2 3e 6a a5 d8 3d 31 0f 13 3d e1 99 2c bf
       0.37912783 0.10578425 0.03590316 -0.674223
000120 1c 30 0f 3f 0c 57 51 3f 28 42 96 bf 8d a4 21 bd
       0.55932784 0.8177345 -1.1738939 -0.03946357
000130 a4 05 56 3f dd d5 16 3e ac bd 4e 3e 9a e3 7a bf
       0.83602357 0.1473002 0.20189542 -0.9800354
000140 7d 0a 60 be 43 d2 b2 3e cd 26 ed be 6d 19 a6 bf
       -0.21879001 0.34926042 -0.46318665 -1.2976509
000150 a7 54 ab be f5 f7 03 3e b5 09 b7 bd a7 c0 cf 3e
       -0.33463022 0.12887557 -0.08937398 0.4057667
000160 66 f5 5e bf 18 43 f9 3d a8 1a f6 3e ff 8d e4 be
       -0.870932 0.12171 0.48067212 -0.44639584
000170 7e b4 bf 3e 93 e5 86 3e 1b ad 19 bf d5 88 23 3e
       0.37442392 0.26347026 -0.60029763 0.15970166
000180 97 66 b2 3d 01 8e 08 3f 35 22 99 bf 3e f8 35 3e
       0.08710974 0.5334168 -1.1963564 0.17770478
000190 b4 6d fb bf bc 0b d6 bf 2f fd 90 be 7d a3 29 3f
       -1.9642854 -1.6722331 -0.28318164 0.6626509
0001a0 fe 2d f6 3e 89 31 0d 3f 49 ee 2d 3e 14 f9 f8 3e
       0.48081964 0.5515371 0.1698543 0.48627532
0001b0 51 01 fa bd c1 5d f4 bf a2 a3 aa 3e 74 85 2d bd
       -0.12207282 -1.9091111 0.33327967 -0.0423636
0001c0 74 1a 8a bf 7c 69 07 bf 6c f1 f7 3a 36 6d 02 be
       -1.0789323 -0.5289533 0.0018916554 -0.12736973
0001d0 71 d3 a9 3b eb 03 db bf b2 f1 1d 3f dd 1e 73 3e
       0.0051826765 -1.7110571 0.6169692 0.23742242
0001e0 00 e7 53 bd 67 ac 39 3f 7e 45 1e be 19 55 58 3e
       -0.05173397 0.7252869 -0.15456197 0.21126212
0001f0 e3 1d 74 bf 31 0b e6 be 34 96 48 bf 46 81 cc be
       -0.95358104 -0.44930413 -0.7835419 -0.39942378
000200 cb 12 54 bf 66 63 99 3e 77 22 88 3e 6f 76 05 3e
       -0.82841176 0.29958647 0.26588795 0.1303346
000210 b5 6b 26 be 54 f3 7f bc 50 1f 45 bf b9 8b e7 bf
       -0.16252024 -0.015621979 -0.77000904 -1.8089515
000220 a1 94 08 bf 4f 54 27 bf 3e 64 1d bf 69 e9 61 3f
       -0.5335179 -0.6536302 -0.6148108 0.8824678
000230 f5 30 f8 3e 30 65 6d 3e f8 07 dd 3e a2 50 5f bf
       0.4847485 0.23183131 0.43170142 -0.8723241
000240 c2 b0 08 bf 65 e5 f2 be 4a 01 99 bd 3f 96 85 3e
       -0.5339471 -0.4744064 -0.07470949 0.2609119
000250 a2 00 e7 3d 82 56 03 3d 93 bb 16 3f 80 8f 2f 3f
       0.112794176 0.032064922 0.58879966 0.6857834
000260 08 73 32 bf 2f b7 bc be 5d 6e 39 bf 7b 77 99 bd
       -0.69706774 -0.36858508 -0.72434026 -0.07493492
000270 e8 3f 64 3c 98 a8 a9 bf 87 61 9b bf 5f f7 cb 3e
       0.013931252 -1.3254576 -1.2139138 0.39837167
000280 f4 5c b4 3e 74 2f 2d 3e 71 a0 1e bf e7 db 13 bf
       0.35227168 0.16912633 -0.61963564 -0.5775742
000290 bf d4 00 c0 c1 30 d9 3e 9a 57 47 bf d0 91 d6 bf
       -2.012985 0.4242001 -0.77868044 -1.6763248
0002a0 f8 30 34 3d b0 b3 8b 3e bb 38 b4 3e ea 42 08 bf
       0.043992013 0.27285528 0.35199532 -0.532271
0002b0 af 91 94 3e 24 1d e4 bd 76 d7 02 3f be 7f 72 be
       0.29017398 -0.11138371 0.5111002 -0.23681542
0002c0 fa 71 0f be 8e ab d2 be 6b ac f0 3e 1c 15 02 bf
       -0.14008322 -0.4114651 0.47006544 -0.5081346
0002d0 1e f1 c7 be ad 8b 01 3e 94 57 22 3f 10 5c c8 bf
       -0.39051145 0.12650938 0.63414884 -1.5653095
0002e0 db 19 62 bd 3f a4 63 be 0a d3 0d 3f fe 86 ce bf
       -0.05520044 -0.22230624 0.55400145 -1.6134946
0002f0 6a 8b d1 be ad 2a 43 bf 4a 31 0d be 92 77 9e 3e
       -0.40926677 -0.76236993 -0.13788334 0.309506
000300 1d b1 35 3f 42 f8 14 3f 3e 49 19 bf f7 b7 03 be
       0.7097338 0.5819131 -0.59877384 -0.12863146
000310 be 8a c0 3c e7 31 c3 bf ca b1 40 bf 53 8f fc be
       0.023503657 -1.5249604 -0.75271285 -0.49328098
000320 51 e6 c2 bf 01 f8 0f c0 c8 a1 a0 bd 71 eb 14 3f
       -1.5226537 -2.249512 -0.07843357 0.58171755
000330 19 2f a1 3d 41 36 12 3f f4 9a b2 3e 1d e4 53 3e
       0.07870311 0.57114035 0.34883845 0.20692487
000340 07 12 ff 3d 6d df d3 bf 8a a1 14 bf 72 fa 79 c0
       0.1245461 -1.6552559 -0.5805899 -3.905911
000350 9e 1d c0 bc 69 9f ba 3e bc df 91 3e 05 2f 0a 3f
       -0.023451623 0.36449745 0.28491008 0.53977996
000360 eb cb d9 3e 84 a8 6e bb ec b2 f7 3d cf 2f 5b bf
       0.4253839 -0.003641636 0.120946735 -0.85619825
000370 6a ce 76 bd 9c b4 0b c0 df eb 76 be 2f 18 99 3e
       -0.060255446 -2.1828985 -0.24113415 0.29901263
000380 9b 0c 16 3f 71 7f 6b bd db 55 8f 3e fc 75 9a 3e
       0.58612984 -0.057494584 0.2799519 0.3016814
000390 c6 55 2b 3d 69 35 57 bf 47 71 c7 3d c6 54 8d 3c
       0.041829847 -0.8406587 0.09738403 0.017252337
0003a0 ec e1 4f 3e ed 33 07 bf 47 77 60 bf bb c8 37 3d
       0.20301026 -0.5281361 -0.87682 0.044869166
0003b0 10 4f df 3e 11 27 74 bf 52 92 22 3f 06 da e5 be
       0.43615007 -0.9537211 0.6350452 -0.448929
0003c0 ae 44 7d 3e f0 50 3e bf af ce 99 3e fd 34 78 c0
       0.2473323 -0.7434225 0.300405 -3.8782341
0003d0 33 8c 0c bf 74 9e 7b bd 4b fe e2 3e 75 36 a7 3e
       -0.5490143 -0.06143041 0.44334635 0.32658735
0003e0 85 fa a1 bf 43 83 cf 3e 5e 93 eb be 39 1a 0e bf
       -1.2654577 0.40529832 -0.4601087 -0.5550876
0003f0 5e 3d 55 3e 26 92 24 be 7e 64 25 3f 02 4e 04 bf
       0.20824191 -0.16071376 0.64606464 -0.5168153
